nohup: ignoring input
Using backend: pytorch
Generate complex graph...
Generate complex graph...
Generate complex graph...
the number of train data: 108
the number of valid data: 41
the number of test data: 49
number of parameters :  1664822
DTIPredictorV4_V2(
  (cov_graph): ModifiedAttentiveFPPredictorV2(
    (gnn): ModifiedAttentiveFPGNNV2(
      (init_context): GetContext(
        (project_node): Sequential(
          (0): Linear(in_features=40, out_features=256, bias=True)
          (1): LeakyReLU(negative_slope=0.01)
        )
        (project_edge1): Sequential(
          (0): Linear(in_features=61, out_features=256, bias=True)
          (1): LeakyReLU(negative_slope=0.01)
        )
        (project_edge2): Sequential(
          (0): Dropout(p=0.1, inplace=False)
          (1): Linear(in_features=512, out_features=1, bias=True)
          (2): LeakyReLU(negative_slope=0.01)
        )
        (attentive_gru): AttentiveGRU1(
          (edge_transform): Sequential(
            (0): Dropout(p=0.1, inplace=False)
            (1): Linear(in_features=256, out_features=256, bias=True)
          )
          (gru): GRUCell(256, 256)
        )
      )
      (gnn_layers): ModuleList(
        (0): GNNLayer(
          (project_edge): Sequential(
            (0): Dropout(p=0.1, inplace=False)
            (1): Linear(in_features=512, out_features=1, bias=True)
            (2): LeakyReLU(negative_slope=0.01)
          )
          (attentive_gru): AttentiveGRU2(
            (project_node): Sequential(
              (0): Dropout(p=0.1, inplace=False)
              (1): Linear(in_features=256, out_features=256, bias=True)
            )
            (gru): GRUCell(256, 256)
          )
          (bn_layer): BatchNorm1d(256, eps=1e-05, momentum=0.1, affine=True, track_running_stats=True)
        )
        (1): GNNLayer(
          (project_edge): Sequential(
            (0): Dropout(p=0.1, inplace=False)
            (1): Linear(in_features=512, out_features=1, bias=True)
            (2): LeakyReLU(negative_slope=0.01)
          )
          (attentive_gru): AttentiveGRU2(
            (project_node): Sequential(
              (0): Dropout(p=0.1, inplace=False)
              (1): Linear(in_features=256, out_features=256, bias=True)
            )
            (gru): GRUCell(256, 256)
          )
          (bn_layer): BatchNorm1d(256, eps=1e-05, momentum=0.1, affine=True, track_running_stats=True)
        )
      )
    )
    (predict): Sequential(
      (0): Dropout(p=0.1, inplace=False)
      (1): Linear(in_features=256, out_features=1, bias=True)
    )
  )
  (noncov_graph): DTIConvGraph3Layer(
    (grah_conv): DTIConvGraph3(
      (mpl): Sequential(
        (0): Linear(in_features=257, out_features=200, bias=True)
        (1): LeakyReLU(negative_slope=0.01)
        (2): Linear(in_features=200, out_features=200, bias=True)
        (3): LeakyReLU(negative_slope=0.01)
        (4): Linear(in_features=200, out_features=200, bias=True)
        (5): LeakyReLU(negative_slope=0.01)
      )
    )
    (dropout): Dropout(p=0.1, inplace=False)
    (bn_layer): BatchNorm1d(200, eps=1e-05, momentum=0.1, affine=True, track_running_stats=True)
  )
  (FC): FC(
    (predict): ModuleList(
      (0): Linear(in_features=400, out_features=200, bias=True)
      (1): Dropout(p=0.1, inplace=False)
      (2): LeakyReLU(negative_slope=0.01)
      (3): BatchNorm1d(200, eps=1e-05, momentum=0.1, affine=True, track_running_stats=True)
      (4): Linear(in_features=200, out_features=200, bias=True)
      (5): Dropout(p=0.1, inplace=False)
      (6): LeakyReLU(negative_slope=0.01)
      (7): BatchNorm1d(200, eps=1e-05, momentum=0.1, affine=True, track_running_stats=True)
      (8): Linear(in_features=200, out_features=1, bias=True)
    )
  )
  (readout): EdgeWeightedSumAndMax(
    (weight_and_sum): EdgeWeightAndSum(
      (atom_weighting): Sequential(
        (0): Linear(in_features=200, out_features=1, bias=True)
        (1): Tanh()
      )
    )
  )
)
epoch:0 	 train_rmse:7.0889 	 valid_rmse:6.5536 	 time:0.855 s
EarlyStopping counter: 1 out of 70
epoch:1 	 train_rmse:7.1293 	 valid_rmse:6.5921 	 time:0.616 s
EarlyStopping counter: 2 out of 70
epoch:2 	 train_rmse:7.1926 	 valid_rmse:6.6542 	 time:0.602 s
EarlyStopping counter: 3 out of 70
epoch:3 	 train_rmse:7.2640 	 valid_rmse:6.7245 	 time:0.592 s
…
